catkin_ws/src/object_detection/src/model/keypoint_classifier/keypoint_classifier.tflite (tflite, 7568 bytes, 8 tensors)

sequential/dense/BiasAdd/ReadVariableOp f4 [32]
000000 1f e6 42 3d 00 00 00 00 7d 93 12 3d 0f aa a2 3c
       0.04758274 0.0 0.035785187 0.01985648
000010 47 9d d2 3d 8c 0f dc 3d a3 b2 80 bd f8 89 cd 3d
       0.102839045 0.10745153 -0.06284072 0.10036081
000020 b7 37 b2 3d f5 66 ea 3d 07 35 24 bc e0 50 2f 3d
       0.08702033 0.11445419 -0.010022408 0.042801738
000030 22 81 af 3d 00 00 00 00 1f 6f 1d 3e a0 15 13 3e
       0.08569552 0.0 0.1537442 0.14363718
000040 1c 5c ba 3d b8 5f 6c 3d 66 25 43 3d 5d 67 77 bc
       0.090996 0.057708472 0.047643088 -0.015100327
000050 6f 76 3c 3e 00 00 00 00 61 6e bd 3d 78 53 0f 3e
       0.18404554 0.0 0.09249569 0.13996685
000060 00 00 00 00 08 50 cd 3d c2 1c c2 3d 40 17 51 3d
       0.0 0.100250304 0.09478141 0.051047564
000070 1d b5 6d 3d 31 16 c4 bc 24 1c f3 3d cd db 18 3e
       0.05803405 -0.023936363 0.11870602 0.14927597

sequential/dense_1/BiasAdd/ReadVariableOp f4 [32]
000000 5c c9 18 3e 00 00 00 00 bd 22 8d 3d 77 49 f2 3d
       0.14920563 0.0 0.068913914 0.118304186
000010 0b 4c 55 bc 86 5e 1c 3b 2d be 0d 3e d1 16 88 3d
       -0.013018618 0.0023860051 0.13842078 0.06644977
000020 db fd 83 3d 54 f6 a4 3b ee c6 4f 3e 45 ed d3 3d
       0.064449035 0.0050342474 0.2029073 0.1034799
000030 d7 8d 3f bd a6 62 1c 3e 88 d3 c5 3c 0b 17 b6 3d
       -0.04676613 0.15272006 0.024148718 0.08891114
000040 e0 99 b6 3c da e4 df bc b6 9b 11 bd 9e 9d f4 3d
       0.02229017 -0.027330805 -0.03554889 0.119441256
000050 e1 71 89 3d 0f e4 98 3c 2b ea 9a 3c 27 4d 49 3d
       0.06711174 0.018663434 0.018910488 0.049145844
000060 7c ce 48 3d 39 0e 03 bc 41 c3 d7 3d 1a 01 89 3d
       0.049025044 -0.007998996 0.105352886 0.06689663
000070 f4 bd 90 3c c9 6b ab 3d df 00 de 3d be 48 f3 3c
       0.017668702 0.08370168 0.1084001 0.029697772

sequential/dense_2/BiasAdd/ReadVariableOp f4 [16]
000000 0c b6 84 3c 1c a7 9b 3d fe ef 81 3d f4 f6 ba bc
       0.016200088 0.07600233 0.06344603 -0.022822835
000010 f8 91 a2 3d a9 38 6e bb 4a 5a 84 3d ce 06 0e 3e
       0.079379976 -0.003634969 0.06462534 0.13869783
000020 5c 21 71 3d 5d 5b 00 3d 13 9a c2 3d 03 78 e0 bc
       0.058869705 0.03133713 0.095020436 -0.027400976
000030 3a 96 ab 3c bc a5 fd 3d f8 eb ce bb 56 71 98 3c
       0.020945657 0.12385127 -0.0063147508 0.01860873

sequential/dense_3/BiasAdd/ReadVariableOp f4 [10]
000000 fc fa 40 be 88 b4 f3 bd 7d b6 cf 3c df 31 ef bc
       -0.18845743 -0.11899668 0.025355572 -0.029198585
000010 28 42 e3 3d 67 79 ff 3c 8d ff 1b 3d 34 0f 50 3c
       0.11096603 0.031185819 0.03808551 0.012698937
000020 00 a0 6b 3d 27 0e 6c 3d
       0.057525635 0.057630684

sequential/dense/MatMul i1 [32, 42] scale=0.009495011 zero_point=0
000000 17 0e fd dc 0d 1a d8 08 e7 fb 0c f8 08 06 04 02
       0.21838525 0.13293014 -0.028485032 -0.3418204 0.12343514 0.24687028 -0.37980044 0.075960085 -0.23737526 -0.047475055 0.11394013 -0.075960085 0.075960085 0.056970064 0.037980042 0.018990021
000010 0a 17 e9 11 07 ea 16 dd 24 03 18 e4 13 dd ee dd
       0.09495011 0.21838525 -0.21838525 0.16141517 0.06646507 -0.20889023 0.20889023 -0.33232537 0.3418204 0.028485032 0.22788025 -0.2658603 0.1804052 -0.33232537 -0.1709102 -0.33232537
000020 20 d3 eb 06 db 16 01 e9 0a f3 e4 03 eb eb 11 09
       0.30384034 -0.42727548 -0.19939522 0.056970064 -0.35131538 0.20889023 0.009495011 -0.21838525 0.09495011 -0.12343514 -0.2658603 0.028485032 -0.19939522 -0.19939522 0.16141517 0.0854551
000030 0e fc f4 1a f2 12 17 0b 03 f3 f6 1c 01 0d eb fe
       0.13293014 -0.037980042 -0.11394013 0.24687028 -0.13293014 0.1709102 0.21838525 0.104445115 0.028485032 -0.12343514 -0.09495011 0.2658603 0.009495011 0.12343514 -0.19939522 -0.018990021
000040 fc 08 fb 01 f1 0a f8 ec fe 03 14 12 e5 1d 17 0c
       -0.037980042 0.075960085 -0.047475055 0.009495011 -0.14242516 0.09495011 -0.075960085 -0.18990022 -0.018990021 0.028485032 0.18990022 0.1709102 -0.2563653 0.2753553 0.21838525 0.11394013
000050 13 e7 f1 0c ef e3 e8 e3 15 12 d4 11 f4 f8 04 da
       0.1804052 -0.23737526 -0.14242516 0.11394013 -0.16141517 -0.2753553 -0.22788025 -0.2753553 0.19939522 0.1709102 -0.41778046 0.16141517 -0.11394013 -0.075960085 0.037980042 -0.3608104
000060 13 08 e9 f7 e0 ff 06 e8 0a e3 f6 e6 e9 e8 0c dd
       0.1804052 0.075960085 -0.21838525 -0.0854551 -0.30384034 -0.009495011 0.056970064 -0.22788025 0.09495011 -0.2753553 -0.09495011 -0.24687028 -0.21838525 -0.22788025 0.11394013 -0.33232537
000070 fe e8 15 e5 e9 e2 f9 ef 12 e4 04 da f8 ae 0f 0a
       -0.018990021 -0.22788025 0.19939522 -0.2563653 -0.21838525 -0.28485033 -0.06646507 -0.16141517 0.1709102 -0.2658603 0.037980042 -0.3608104 -0.075960085 -0.77859086 0.14242516 0.09495011
000080 fa 1a 13 e7 08 ee 4c e6 f7 e9 e7 de fd e3 ea 21
       -0.056970064 0.24687028 0.1804052 -0.23737526 0.075960085 -0.1709102 0.7216208 -0.24687028 -0.0854551 -0.21838525 -0.23737526 -0.32283035 -0.028485032 -0.2753553 -0.20889023 0.31333536
000090 fd 00 12 e7 fa 0e 12 01 00 0b f8 ff fd dd 17 f9
       -0.028485032 0.0 0.1709102 -0.23737526 -0.056970064 0.13293014 0.1709102 0.009495011 0.0 0.104445115 -0.075960085 -0.009495011 -0.028485032 -0.33232537 0.21838525 -0.06646507
0000a0 df e5 f1 e4 d8 09 e0 36 19 e4 0f ea 18 1b 2e e2
       -0.31333536 -0.2563653 -0.14242516 -0.2658603 -0.37980044 0.0854551 -0.30384034 0.5127306 0.23737526 -0.2658603 0.14242516 -0.20889023 0.22788025 0.2563653 0.4367705 -0.28485033
0000b0 24 ed f2 fb 12 e6 fc 1f fb 22 f6 f5 15 19 dc e8
       0.3418204 -0.1804052 -0.13293014 -0.047475055 0.1709102 -0.24687028 -0.037980042 0.29434532 -0.047475055 0.32283035 -0.09495011 -0.104445115 0.19939522 0.23737526 -0.3418204 -0.22788025
0000c0 04 f2 0d f4 f1 e6 f5 c0 17 c5 ee e1 19 09 f5 f4
       0.037980042 -0.13293014 0.12343514 -0.11394013 -0.14242516 -0.24687028 -0.104445115 -0.6076807 0.21838525 -0.56020564 -0.1709102 -0.29434532 0.23737526 0.0854551 -0.104445115 -0.11394013
0000d0 fa 15 10 e7 17 f9 f4 ed 1d ed 2d e2 ef e5 f8 db
       -0.056970064 0.19939522 0.15192017 -0.23737526 0.21838525 -0.06646507 -0.11394013 -0.1804052 0.2753553 -0.1804052 0.42727548 -0.28485033 -0.16141517 -0.2563653 -0.075960085 -0.35131538
0000e0 19 de 2d c1 fb db 22 e7 26 e7 32 00 18 11 02 f3
       0.23737526 -0.32283035 0.42727548 -0.59818566 -0.047475055 -0.35131538 0.32283035 -0.23737526 0.3608104 -0.23737526 0.47475052 0.0 0.22788025 0.16141517 0.018990021 -0.12343514
0000f0 f2 25 0b 31 0e f6 10 fc f2 f7 04 0a 1a 16 c7 e1
       -0.13293014 0.35131538 0.104445115 0.46525553 0.13293014 -0.09495011 0.15192017 -0.037980042 -0.13293014 -0.0854551 0.037980042 0.09495011 0.24687028 0.20889023 -0.5412156 -0.29434532

sequential/dense_1/MatMul i1 [32, 32] scale=0.0071672867 zero_point=0
000000 1c fd e0 03 ed fa a7 18 02 47 99 d2 4f 10 17 f7
       0.20068403 -0.02150186 -0.22935317 0.02150186 -0.13617845 -0.04300372 -0.6378885 0.17201488 0.014334573 0.50887734 -0.7382305 -0.3296952 0.56621563 0.11467659 0.1648476 -0.06450558
000010 0b df c4 12 10 0e 34 14 19 33 13 ad 07 1f 33 04
       0.07884015 -0.23652045 -0.4300372 0.12901115 0.11467659 0.10034201 0.3726989 0.14334573 0.17918217 0.36553162 0.13617845 -0.5948848 0.050171006 0.2221859 0.36553162 0.028669147
000020 16 e9 f9 06 f8 dd d5 da d6 dc df e1 ea 0b 16 e5
       0.1576803 -0.1648476 -0.050171006 0.04300372 -0.057338294 -0.25085503 -0.30819333 -0.2723569 -0.30102605 -0.2580223 -0.23652045 -0.2221859 -0.1576803 0.07884015 0.1576803 -0.19351675
000030 dd 19 d8 ea ff 25 e2 10 05 f6 06 2a e6 dc f4 13
       -0.25085503 0.17918217 -0.28669146 -0.1576803 -0.0071672867 0.26518962 -0.2150186 0.11467659 0.035836432 -0.071672864 0.04300372 0.30102605 -0.18634945 -0.2580223 -0.08600744 0.13617845
000040 ed 12 dd f7 11 0f db dd 3b 2f bf 2b ff de fa 02
       -0.13617845 0.12901115 -0.25085503 -0.06450558 0.121843874 0.1075093 -0.26518962 -0.25085503 0.42286992 0.33686247 -0.46587363 0.30819333 -0.0071672867 -0.24368775 -0.04300372 0.014334573
000050 48 48 0c 21 23 e1 2e c9 05 28 d4 d4 0d 1e 2c 2d
       0.5160446 0.5160446 0.08600744 0.23652045 0.25085503 -0.2221859 0.3296952 -0.39420077 0.035836432 0.28669146 -0.3153606 -0.3153606 0.093174726 0.2150186 0.3153606 0.32252792
000060 49 dc e6 32 32 d3 a4 fa f0 39 03 da fa 13 20 05
       0.52321196 -0.2580223 -0.18634945 0.35836434 0.35836434 -0.32252792 -0.6593904 -0.04300372 -0.11467659 0.40853533 0.02150186 -0.2723569 -0.04300372 0.13617845 0.22935317 0.035836432
000070 15 c9 d5 23 23 21 3c 37 fd e7 e2 34 6e ef 10 02
       0.15051302 -0.39420077 -0.30819333 0.25085503 0.25085503 0.23652045 0.4300372 0.39420077 -0.02150186 -0.17918217 -0.2150186 0.3726989 0.78840154 -0.121843874 0.11467659 0.014334573
000080 01 1a e5 15 d3 15 1d fd 37 fe bb 18 d6 17 0a 3b
       0.0071672867 0.18634945 -0.19351675 0.15051302 -0.32252792 0.15051302 0.20785132 -0.02150186 0.39420077 -0.014334573 -0.49454278 0.17201488 -0.30102605 0.1648476 0.071672864 0.42286992
000090 45 08 1f ef 00 e0 fc ef 0d f3 24 bb d8 fd 12 19
       0.49454278 0.057338294 0.2221859 -0.121843874 0.0 -0.22935317 -0.028669147 -0.121843874 0.093174726 -0.093174726 0.2580223 -0.49454278 -0.28669146 -0.02150186 0.12901115 0.17918217
0000a0 25 14 ec de a1 d9 79 06 0a ad a6 f0 f0 29 27 de
       0.26518962 0.14334573 -0.14334573 -0.24368775 -0.6808922 -0.27952418 0.8672417 0.04300372 0.071672864 -0.5948848 -0.64505583 -0.11467659 -0.11467659 0.29385877 0.27952418 -0.24368775
0000b0 1f 0f 8f e1 1a df 0e c4 09 05 df 0e 05 ff 1d 29
       0.2221859 0.1075093 -0.8099034 -0.2221859 0.18634945 -0.23652045 0.10034201 -0.4300372 0.06450558 0.035836432 -0.23652045 0.10034201 0.035836432 -0.0071672867 0.20785132 0.29385877
0000c0 3c 0c 37 29 15 0a 61 4a f8 f3 12 f6 c1 fa 3d 4e
       0.4300372 0.08600744 0.39420077 0.29385877 0.15051302 0.071672864 0.6952268 0.53037924 -0.057338294 -0.093174726 0.12901115 -0.071672864 -0.45153907 -0.04300372 0.43720448 0.55904835
0000d0 17 e8 e5 0c 25 23 e0 2e ea fb 20 3f 60 e3 34 3c
       0.1648476 -0.17201488 -0.19351675 0.08600744 0.26518962 0.25085503 -0.22935317 0.3296952 -0.1576803 -0.035836432 0.22935317 0.45153907 0.6880595 -0.20785132 0.3726989 0.4300372
0000e0 16 ee 34 28 0b 04 9f f7 19 3d 93 01 db 01 e1 f1
       0.1576803 -0.12901115 0.3726989 0.28669146 0.07884015 0.028669147 -0.6952268 -0.06450558 0.17918217 0.43720448 -0.78123426 0.0071672867 -0.26518962 0.0071672867 -0.2221859 -0.1075093
0000f0 05 f6 a6 e2 05 0d 40 16 ea 18 ca ce 04 0a 0b 20
       0.035836432 -0.071672864 -0.64505583 -0.2150186 0.035836432 0.093174726 0.45870635 0.1576803 -0.1576803 0.17201488 -0.3870335 -0.35836434 0.028669147 0.071672864 0.07884015 0.22935317

sequential/dense_2/MatMul f4 [16, 32]
000000 36 5a 3b 3f cf fe 90 3e f4 d9 98 3e f4 96 ab 3e
       0.73184526 0.28319404 0.29853785 0.33513606
000010 c6 c3 dd 3e 52 93 a8 3e 8b 5a 81 3d 05 5d 12 3e
       0.43313426 0.32924896 0.06316098 0.14293297
000020 82 2e b6 be 10 c2 cb be f1 80 ab 3e 67 2c c3 3e
       -0.35582358 -0.39796495 0.33496812 0.38119814
000030 de b5 bd 3e 0f 71 b4 be d7 e9 be 3e 31 e6 15 bf
       0.37052816 -0.35242507 0.3728778 -0.5855437
000040 2d d2 29 3f cd be db be c7 d3 64 3e 20 d6 74 be
       0.6633633 -0.42919007 0.22346412 -0.23909807
000050 43 2b ca 3e 23 ea b5 3e c8 5d 80 3e c5 a5 59 be
       0.3948613 0.35530195 0.2507155 -0.21254642
000060 a2 3a d3 3e bd 43 64 bd b2 14 fa bd d1 c5 a2 3e
       0.4125567 -0.055728663 -0.122109786 0.31791547
000070 84 29 1c 3e 5d 4e ea 3e bc 53 9b 3e 88 3d 96 3e
       0.15250212 0.4576291 0.30337322 0.2934382
000080 20 7a 80 3e 03 68 aa 3e f2 f0 e3 3d a9 f3 14 3f
       0.25093174 0.3328248 0.11129941 0.58184296
000090 72 c7 a7 be 3d 78 93 be 1c 16 90 3e 5d 7a f4 3e
       -0.32769352 -0.28802672 0.28141868 0.47749606
0000a0 20 1c 18 3d b1 f8 93 be 46 02 12 3f dc c4 bb 3e
       0.037136197 -0.28900674 0.5703472 0.3667363
0000b0 c0 d5 cd be dc ad 86 bd 96 01 d6 3e 2b 09 55 3e
       -0.4020214 -0.0657613 0.41798085 0.20804279
0000c0 69 08 08 bf 93 d2 61 3c d0 7d 4a 3e ca 73 20 bf
       -0.5313783 0.013783115 0.19774556 -0.6267668
0000d0 a2 0f 46 bf bb ef 41 bf c4 5c ef be 3b 15 7e 3e
       -0.77367604 -0.75756425 -0.46750462 0.24812786
0000e0 ba 0f 1d 3e e4 93 f3 be bf 55 df 3e e2 73 10 3f
       0.1533803 -0.4757377 0.43620107 0.56426823
0000f0 a7 f6 b1 be 10 22 6f be 11 3d 02 bc 1c 2c 03 3e
       -0.34758493 -0.23352838 -0.00794913 0.12809795
000100 60 ab d0 3e 20 f2 03 bc 6f 40 27 bd e5 d6 f9 3e
       0.4075575 -0.008053333 -0.040832933 0.48796764
000110 93 36 12 bf e6 c5 ca be a3 cc be 3d 1a f2 46 3e
       -0.57114524 -0.3960411 0.09316375 0.19428292
000120 77 6f ae 3c 9c 80 8c be cc aa 16 be be 72 13 3f
       0.021293385 -0.2744187 -0.14713591 0.5759696
000130 de ae 68 3d 75 e9 c9 3e db 17 ea bc aa 5e f6 bd
       0.05680739 0.39435926 -0.028575828 -0.120297745
000140 69 51 09 3d 0a f2 44 3e 9f f9 47 be dc 70 00 bf
       0.033524904 0.19232956 -0.19528817 -0.5017221
000150 c2 ff 25 3e 89 98 00 bf f6 79 47 bf ca d6 ab 3d
       0.16210845 -0.5023275 -0.7792047 0.08390577
000160 5c 19 13 3f 56 2c 04 3e e8 0c da 3e 17 fa 73 3d
       0.5746057 0.12907538 0.42587972 0.059564676
000170 b0 3c c0 3e 4e 5e 6a 3e 72 6d bb 3e ca 53 2b be
       0.375463 0.22887537 0.36606938 -0.16731182
000180 5a cf 18 be f5 23 99 3e 56 40 8e be 2c 38 94 be
       -0.14922848 0.29910246 -0.2778346 -0.28949106
000190 8b 0c 05 bd 7c 87 91 be 00 8e 77 be 1a d8 64 be
       -0.032482665 -0.2842368 -0.24175262 -0.22348061
0001a0 60 18 11 bf 57 fd c6 bc 45 06 2d be b6 36 2b 3d
       -0.5667782 -0.024290724 -0.16896923 0.041800223
0001b0 3d bd 55 bf 5f 60 d2 bd b0 03 28 3e 25 6d d6 3c
       -0.8349188 -0.102722876 0.16407657 0.026175091
0001c0 95 87 52 3f 82 d1 81 be 44 fa 5c 3e dd 79 02 3f
       0.8223813 -0.25355154 0.21579844 0.509672
0001d0 76 99 12 3f 59 87 b6 3e 75 b0 09 3f d5 a2 a6 3e
       0.5726541 0.35650137 0.5378488 0.32546106
0001e0 77 a6 02 bd f1 df 00 3f 32 2e 6d be c7 80 c1 3e
       -0.031897034 0.5034171 -0.23162153 0.37793562
0001f0 99 2f 9b be c8 53 b7 bd 2c c4 1a 3f 0f bf f8 3e
       -0.30309752 -0.08951527 0.60455585 0.48583266
000200 98 75 2e 3e 30 99 48 3d 78 c1 63 3e c0 58 fc bd
       0.17037046 0.048974216 0.22241771 -0.12321615
000210 9a b8 72 be 9f 4e e5 3d 1d 0a 0e 3d b9 6d d7 bd
       -0.23703232 0.111966364 0.034677614 -0.10518975
000220 7a 3b 65 3b 60 f3 32 3e a6 50 22 be 5a 37 f5 3d
       0.0034978078 0.17475653 -0.15851077 0.11973448
000230 38 1b 82 3e 76 82 a9 be 11 68 9e 3e f4 df 22 bf
       0.2541139 -0.33107346 0.3093877 -0.63622975
000240 45 a4 f2 3e be 49 df bd a0 76 87 3d de 84 5e 3e
       0.47390953 -0.10902737 0.06614423 0.21730372
000250 c8 7a 4a 3f fa d8 1a 3f f7 d7 36 3e 2d c0 19 bf
       0.790936 0.6048733 0.17855822 -0.6005886
000260 57 24 89 3e e8 12 ea 3e 47 64 3e 3e 68 99 39 3f
       0.26785538 0.4571755 0.1859294 0.72499704
000270 09 07 3f 3d ca 52 f3 3e b9 db 13 3f b9 48 91 3e
       0.04663757 0.475241 0.57757145 0.28375795
000280 ca bc 08 bf b8 f0 20 bd 79 70 33 bf f0 2a 2d bb
       -0.5341307 -0.039292067 -0.70093495 -0.0026423298
000290 8f 8d e1 bd aa 70 4a 3f 1e 32 cf 3e 6a b2 e1 be
       -0.11013328 0.7907816 0.40467924 -0.44081432
0002a0 c3 7b 4a 3f 6d de 3a 3f df 36 85 be 09 84 ba be
       0.79095095 0.72995645 -0.26018426 -0.3642886
0002b0 5b e2 4a 3f 5e 47 bc 3e a3 bc c7 be e4 c2 60 be
       0.7925164 0.367732 -0.39011106 -0.21949345
0002c0 9e 5b ee 3e 31 a8 ca 3e 25 45 8c 3e fa ef 75 3e
       0.46554273 0.39581445 0.27396503 0.24017325
0002d0 12 6a de bd 18 71 d4 3e 44 15 26 3e df b9 41 bf
       -0.10860075 0.41492534 0.1621905 -0.7567424
0002e0 ee df 03 3f 9e c2 c8 3e b2 51 15 3e d0 4f 66 bf
       0.51513565 0.3921098 0.14581946 -0.89965534
0002f0 8c 85 0d 3f 26 7c c2 3e a2 14 ea be 1c 69 e5 be
       0.552819 0.37985343 -0.45718867 -0.44806755
000300 df dd 3e 3e 48 1a 37 bd f1 ce 94 3e 15 30 cf be
       0.18639325 -0.044702798 0.29064134 -0.4046637
000310 f1 30 33 3e e2 9e 4a be 60 20 6f bd dd 0a d6 be
       0.17499138 -0.19787171 -0.058380485 -0.41805163
000320 3e cb 3a bf 8c 08 77 3d c4 52 a8 3e a7 69 0d 3c
       -0.7296637 0.060310885 0.32875645 0.0086311465
000330 fd 8d 16 bf 38 74 61 3e a1 b1 f5 bd 55 09 bd 3e
       -0.58810407 0.2201699 -0.11996771 0.36921182
000340 ee 80 ff bc a9 66 a6 3d 97 59 f4 3c 41 4c 33 3f
       -0.031189408 0.081250496 0.029827876 0.7003823
000350 2d 73 9a 3e e0 1a 00 3f f5 68 0a 3f 9f 83 ed 3e
       0.30165997 0.5004101 0.540664 0.4638948
000360 1b 42 09 bf 0b 39 ce 3e 82 5d 54 be 93 2d d1 3e
       -0.53616494 0.40277895 -0.20738795 0.40855083
000370 41 ad c0 bd 2a 18 c6 bc b5 7d e1 bd 9d 69 e9 3e
       -0.094080456 -0.024181444 -0.11010305 0.4558839
000380 f5 dc c8 3e 96 69 22 3e 16 f5 2b 3e a3 ee 43 3f
       0.39231077 0.1586059 0.16792712 0.76536006
000390 98 63 2b bf 5e 22 95 bf 6f 36 2b 3e 17 55 98 3e
       -0.66948843 -1.1651113 0.16719984 0.29752418
0003a0 a2 54 a9 3e 7e 39 75 be af 52 ca 3e d9 7c 38 be
       0.33072382 -0.23947713 0.39516208 -0.18016376
0003b0 6f ef 9c be 2d 1f ef 3e d9 08 a9 3a 8d 92 8c 3e
       -0.30651423 0.46703473 0.0012896314 0.2745556
0003c0 db 2e 9b be de db 84 be 77 7a 20 be fd 8a cb be
       -0.30309185 -0.25948995 -0.15671717 -0.39754477
0003d0 0a c2 92 be 21 a0 94 bd 46 d3 db be 59 03 0d bd
       -0.28663665 -0.07257105 -0.42934626 -0.03442702
0003e0 de 75 78 3d c9 0f 10 3e 21 b6 1b 3f b0 ae bd 3e
       0.060659282 0.14068522 0.6082478 0.37047338
0003f0 da 42 87 be e2 c8 09 bf 06 4f f5 3d 06 13 38 be
       -0.2641819 -0.5382215 0.11977963 -0.17976007

sequential/dense_3/MatMul f4 [10, 16]
000000 07 72 2c bc a8 18 9e be 91 c0 3d bf cf 89 a9 3e
       -0.010525233 -0.30878186 -0.7412196 0.33112952
000010 82 f8 31 3d 7b a0 ec 3e 93 d6 95 3e c5 31 be be
       0.043449886 0.46216187 0.2926527 -0.37147346
000020 90 c6 06 bf 7e ef b2 3e 6d 8b 99 3e 1c 2e c8 3e
       -0.5264673 0.34948343 0.29989186 0.3909768
000030 10 16 f2 3e 9c 5c 44 bf 2b 98 f5 3e f2 ee 11 3c
       0.47282457 -0.7670381 0.47967657 0.008907067
000040 20 47 f2 3e e4 40 d8 be 9c 61 5b be d9 42 25 3f
       0.4731989 -0.42237008 -0.21423954 0.64555126
000050 a9 33 82 3e 55 57 f9 bd 55 48 10 3f d2 a4 65 bf
       0.2543004 -0.121748604 0.5636037 -0.8970462
000060 40 e4 0c bf b1 dd b1 be b6 4d 17 bd 9c c2 f8 3e
       -0.5503578 -0.3473945 -0.036939345 0.48585975
000070 1e 1b c1 be b3 ec 2f bf 8d f0 80 be c8 4e 41 3f
       -0.37716 -0.6872055 -0.25183526 0.75510836
000080 0b f3 17 3f 91 0c 0d 3e 66 6e a2 be 65 09 85 3e
       0.5935523 0.13774325 -0.31724852 0.2598373
000090 07 0d c3 3d 9a c9 ae bf 9b 0c 23 3f 3d ab f1 be
       0.09523969 -1.3655274 0.6369111 -0.47200957
0000a0 9d 6e 90 be 35 7f d5 3e bc 1d 8e bd fe bb 31 be
       -0.2820939 0.41698614 -0.06939265 -0.1735687
0000b0 68 a6 90 3d 96 e5 b6 3e 3b 9c bd 3d 9d a4 39 be
       0.070629895 0.35722035 0.09258314 -0.18129201
0000c0 8a 17 d5 3e ca 4f 05 bf 80 d1 e2 3d c8 b7 33 bf
       0.4161952 -0.52074873 0.11075115 -0.702023
0000d0 46 4a a4 3e 97 ca 89 3e 57 4a a9 be 32 8c 15 bf
       0.32087916 0.26912376 -0.3306453 -0.58417046
0000e0 59 71 b4 be 44 30 3b bf 18 f0 c3 3a 70 9a cc 3e
       -0.35242727 -0.7312052 0.0014948873 0.39961576
0000f0 e6 6c 21 bf 25 c1 72 3e 3f e9 f4 be 6e 1c 34 3f
       -0.6305679 0.23706491 -0.47834203 0.7035588
000100 96 ab 99 bd 47 40 f1 3e 58 13 84 be 08 6b 30 bf
       -0.075034305 0.47119352 -0.25796008 -0.68913317
000110 70 4f 99 bf ac c5 23 be dc 9c 6a be c6 7a 19 3f
       -1.1977367 -0.15993375 -0.229114 0.5995296
000120 50 84 f7 bd 9a ed ae 3e 06 2e 69 bf d3 00 c0 be
       -0.120857835 0.3416565 -0.9108585 -0.3750063
000130 e3 98 3e bf 53 66 13 3f 16 0a 6e bd 72 e5 0a bf
       -0.74452037 0.5757801 -0.058115087 -0.54256356
000140 38 c4 10 3f f3 73 11 3e e4 4f ad bc 42 3e d4 bc
       0.56549406 0.14204387 -0.021156259 -0.025908593
000150 ca 94 22 3e 56 3b 0e 3f 6b 34 8f bf 48 a1 de be
       0.15877071 0.5555929 -1.1187872 -0.43482423
000160 00 cd 99 be 39 9f 3f bf 2c 4a 65 3d 37 bb d9 be
       -0.30039215 -0.7485233 0.05597894 -0.42525646
000170 e0 ba 09 be b1 83 e8 3e f0 d9 46 3e 1c 78 8b bf
       -0.13450193 0.45412973 0.19419074 -1.089603
000180 b2 b9 2f 3f ab 0d 09 3f 11 8c 20 3f 32 5e c9 be
       0.68642724 0.5353648 0.62713724 -0.39329678
000190 48 a8 d4 3e f7 03 28 bf ee fc 33 bf 80 f2 e0 3e
       0.41534638 -0.6563105 -0.70307815 0.43935013
0001a0 83 85 d8 be 72 f8 da bc 7d 11 ec 3e 1d d9 1e 3e
       -0.4228936 -0.026729796 0.46107092 0.1551251
0001b0 fa 0d 67 bf 88 f8 01 bd 63 a0 19 bf 68 ef 80 bf
       -0.902557 -0.03173116 -0.60010356 -1.0073061
0001c0 87 6d 5f bf bb 9d 88 be cd 99 98 be 33 fa b4 3c
       -0.872765 -0.2668284 -0.2980484 0.02209196
0001d0 59 ab 25 bf c1 eb f2 3c e6 85 50 3f c6 85 85 bf
       -0.6471458 0.029653432 0.8145431 -1.043145
0001e0 5c 36 3a 3f ce cc 8d 3d f6 ca 6d bf a7 22 61 3e
       0.72739196 0.06923829 -0.9288782 0.21985875
0001f0 0c 01 da be 8b 38 d9 3e fd 40 86 3c 4d 71 22 be
       -0.42578924 0.4242595 0.01638841 -0.15863533
000200 fa e9 b6 be f6 1a 50 bf f7 e0 4d be 8c 8d 60 bf
       -0.35725385 -0.8129114 -0.20105349 -0.87715983
000210 77 97 9f 3e 4e 8b 54 3d 66 2d 8a 3e 6a cc 25 3f
       0.31170246 0.051890664 0.2698776 0.64765036
000220 b5 ea 26 3e 7f 89 34 3e 9a 14 94 3e b3 ce d9 be
       0.16300471 0.17630576 0.28921968 -0.4254051
000230 99 d7 d8 3e c3 3a 81 be 24 28 0e 3f d8 19 a8 bd
       0.42351988 -0.25240144 0.5553 -0.08208054
000240 6d 48 4e bf c0 4c 1b 3e 1a 7a 02 3f 6c 36 93 be
       -0.8057926 0.15165997 0.5096756 -0.28752458
000250 1b 3c 27 bf ee 5e 2f 3f 8d 4a 1a be f1 2b 13 3f
       -0.6532609 0.68504226 -0.15067501 0.57488924
000260 24 69 42 bf 0c d2 b7 bb aa 4f 95 3e 31 c4 87 bf
       -0.7594168 -0.0056097563 0.2916234 -1.0606748
000270 de 0a 80 3f fa a4 ca be d9 72 0e 3d 14 de 16 bd
       1.0003316 -0.39578992 0.034777496 -0.036832884
