catkin_ws/src/object_detection/src/model/keypoint_classifier/keypoint_classifier.tflite (tflite, 7568 bytes, 8 tensors)

sequential/dense/BiasAdd/ReadVariableOp f4 [32]
00000000: 00b0 a93d c4c4 e63d f7a9 dd3d a586 173d
00000010: ca9e b73d 063b 8cbd 366a 7e3d 53a6 5b3d
00000020: 391b 0abd 23c0 773d 3533 af3d 331c bf3d
00000030: 9e38 9d3d f079 f13d d96f b13b a903 0abd
00000040: 546d 09bd 8d03 2c3e 6343 873d e620 243e
00000050: e4fe f83d afef b73d 0cc8 f5bc 0e1d d43c
00000060: b4f4 be3d c05d 81ba a961 fb3d 66ca 0cbd
00000070: 0000 0000 a754 6c3d 0e90 143e f34d 183d
0.082855225 0.11267999 0.10823434 0.03699364 0.089658335 -0.06847195 0.06211301 0.053625416
-0.033717368 0.06048597 0.08554689 0.093315504 0.076768145 0.11790836 0.0054149446 -0.033694897
-0.03355153 0.1679823 0.0660465 0.16028175 0.121579915 0.08981263 -0.030002616 0.02589276
0.09324017 -0.0009869859 0.122744866 -0.03437271 0.0 0.05769792 0.14508078 0.037183713

sequential/dense_1/BiasAdd/ReadVariableOp f4 [32]
00000000: 0000 0000 fb2b 133e 2265 6ebc c232 a83d
00000010: 4d7e a63d cb10 803d 5d27 403d 56af e33d
00000020: 98a6 7abb 148c 853d 4819 163e 8326 b03d
00000030: fb1d f43d 8549 c63d 9d29 b43d 0000 0000
00000040: f644 aa3d c1be 043e 0000 0000 19f4 5b3d
00000050: 4843 bb3d 7cd0 a03d 89ca 813d e21e f13d
00000060: 8db0 363d f5fc 0ebd c5f6 893d 56cb 383d
00000070: 3bd2 243e 1725 d93d cafb a73b 0000 0000
0.0 0.14372246 -0.014550479 0.08212806 0.08129559 0.06253203 0.04691254 0.11117427
-0.003824627 0.065208584 0.14658082 0.086010955 0.11919781 0.096819915 0.087969996 0.0
0.083139345 0.12963392 0.0 0.053699587 0.09143692 0.07852265 0.06337459 0.117734686
0.044601966 -0.034909207 0.06736521 0.04511579 0.16095822 0.106027775 0.005126451 0.0

sequential/dense_2/BiasAdd/ReadVariableOp f4 [16]
00000000: fb2c d4bc 617d 393c d991 39bb ab7d eb3d
00000010: 366f b73d 7876 c53d 277b 7b3d d738 6f3d
00000020: e047 5ebd e743 9dbc 63cb 0f3d 96f7 993d
00000030: 1ed6 933d 069d 323d 482e 183d 6429 fa3b
-0.025900355 0.011321397 -0.0028315692 0.11498579 0.08956759 0.09641737 0.061396744 0.058403816
-0.054267764 -0.019197417 0.035106074 0.075179264 0.07218574 0.04360678 0.037153512 0.0076343287

sequential/dense_3/BiasAdd/ReadVariableOp f4 [10]
00000000: 1863 4dbd cf5c eb3c 446b 90bd 8a3b 4eb9
00000010: 708e 873d d7ce 12bd 7857 1bbd b54a 72bd
00000020: d3ba e13d 6bc5 d43d
-0.05014333 0.028730778 -0.07051709 -0.00019667871 0.06618965 -0.03584179 -0.037925214 -0.059153277
0.11021962 0.10389217

sequential/dense/MatMul i1 [32, 42] scale=0.0073130303 zero_point=0
00000000: 0411 2c25 fb13 0619 3211 0d0e f50e 161f
00000010: 28f5 01db e0dc 05cc 22d2 e3dd eff2 f503
00000020: 151f d01b f0e3 e1de f31a 1126 c517 ff1c
00000030: c820 effe e9e3 21ea 05b3 12af 1df3 14e5
00000040: f6f6 03e8 ef1c e718 f810 1ed6 12fd 2028
00000050: e4fb d729 03f7 2402 16bf eed8 17b5 f00b
00000060: df19 f4f1 d7f2 f713 02cf 1f08 1fea 0ff3
00000070: 19e0 0b18 cf3d 22c7 dbf0 ea19 be45 2426
00000080: ef16 05f8 100c c10c 06fd 03df 0aeb f60e
00000090: edd4 10f4 ed0f f410 3812 26d7 1f0d e01b
000000a0: 0f1f 29f3 00f0 1db6 1013 efe1 f014 38f6
000000b0: 59dc 00e8 c3e4 e5cc cbff 080b 13e4 141d
000000c0: ca31 0d0d ed26 2b2e f716 31e3 38e3 14da
000000d0: 4e18 141d 03de cde4 e3f0 122b 1830 0f01
000000e0: e003 1a0c d10a e8ed 1ef6 0ddd f61e f1e8
000000f0: 0eae 14af 261f 1a10 28f8 ffcc 0714 1afa
0.029252121 0.12432151 0.32177332 0.2705821 -0.03656515 0.13894758 0.043878183 0.18282576
0.36565152 0.12432151 0.09506939 0.10238242 -0.08044333 0.10238242 0.16088666 0.22670394
0.2925212 -0.08044333 0.0073130303 -0.2705821 -0.23401697 -0.2632691 0.03656515 -0.38027757
0.24864303 -0.3363994 -0.21207789 -0.25595605 -0.12432151 -0.10238242 -0.08044333 0.021939091
0.15357363 0.22670394 -0.35102546 0.19745182 -0.117008485 -0.21207789 -0.22670394 -0.24864303
-0.09506939 0.19013879 0.12432151 0.27789515 -0.43146878 0.1681997 -0.0073130303 0.20476484
-0.4095297 0.23401697 -0.12432151 -0.014626061 -0.1681997 -0.21207789 0.24133 -0.16088666
0.03656515 -0.5631033 0.13163455 -0.59235543 0.21207789 -0.09506939 0.1462606 -0.19745182
-0.0731303 -0.0731303 0.021939091 -0.17551273 -0.12432151 0.20476484 -0.18282576 0.17551273
-0.058504242 0.117008485 0.21939091 -0.30714726 0.13163455 -0.021939091 0.23401697 0.2925212
-0.20476484 -0.03656515 -0.29983425 0.29983425 0.021939091 -0.065817274 0.2632691 0.014626061
0.16088666 -0.47534698 -0.13163455 -0.2925212 0.1681997 -0.5484773 -0.117008485 0.08044333
-0.24133 0.18282576 -0.087756366 -0.10969546 -0.29983425 -0.10238242 -0.065817274 0.13894758
0.014626061 -0.35833848 0.22670394 0.058504242 0.22670394 -0.16088666 0.10969546 -0.09506939
0.18282576 -0.23401697 0.08044333 0.17551273 -0.35833848 0.44609484 0.24864303 -0.41684273
-0.2705821 -0.117008485 -0.16088666 0.18282576 -0.48266 0.5045991 0.2632691 0.27789515
-0.12432151 0.16088666 0.03656515 -0.058504242 0.117008485 0.087756366 -0.4607209 0.087756366
0.043878183 -0.021939091 0.021939091 -0.24133 0.0731303 -0.15357363 -0.0731303 0.10238242
-0.13894758 -0.32177332 0.117008485 -0.087756366 -0.13894758 0.10969546 -0.087756366 0.117008485
0.4095297 0.13163455 0.27789515 -0.29983425 0.22670394 0.09506939 -0.23401697 0.19745182
0.10969546 0.22670394 0.29983425 -0.09506939 0.0 -0.117008485 0.21207789 -0.5411642
0.117008485 0.13894758 -0.12432151 -0.22670394 -0.117008485 0.1462606 0.4095297 -0.0731303
0.6508597 -0.2632691 0.0 -0.17551273 -0.44609484 -0.20476484 -0.19745182 -0.38027757
-0.38759062 -0.0073130303 0.058504242 0.08044333 0.13894758 -0.20476484 0.1462606 0.21207789
-0.39490363 0.35833848 0.09506939 0.09506939 -0.13894758 0.27789515 0.3144603 0.3363994
-0.065817274 0.16088666 0.35833848 -0.21207789 0.4095297 -0.21207789 0.1462606 -0.27789515
0.5704164 0.17551273 0.1462606 0.21207789 0.021939091 -0.24864303 -0.37296453 -0.20476484
-0.21207789 -0.117008485 0.13163455 0.3144603 0.17551273 0.35102546 0.10969546 0.0073130303
-0.23401697 0.021939091 0.19013879 0.087756366 -0.34371242 0.0731303 -0.17551273 -0.13894758
0.21939091 -0.0731303 0.09506939 -0.25595605 -0.0731303 0.21939091 -0.10969546 -0.17551273
0.10238242 -0.5996685 0.1462606 -0.59235543 0.27789515 0.22670394 0.19013879 0.117008485
0.2925212 -0.058504242 -0.0073130303 -0.38027757 0.05119121 0.1462606 0.19013879 -0.043878183

sequential/dense_1/MatMul i1 [32, 32] scale=0.008248649 zero_point=0
00000000: ece1 231c 10e4 f70f e6de f91d e7fe 14df
00000010: f80b 0bec e3f7 0b1e fe00 11e9 0be4 dddf
00000020: 36ed 3d0d db0b 040f 0118 0945 1df8 e21b
00000030: 0242 022a 1ed7 caeb 30e2 f6d4 dcce 0c36
00000040: f3f4 24fa fcea 1118 0def fafc e511 0612
00000050: eced 00dd f804 f5e1 00e6 e7e1 dfdc 0d15
00000060: e1e7 1519 2bd4 df0f 2929 091f 2347 009e
00000070: 08fb 40fa 1f1c 1524 0629 04ce f413 2620
00000080: 0df3 39be 07ea 3c16 e310 fe16 450e 2b20
00000090: fa31 faef dfe4 cc35 d9f6 f40d fec2 1d18
000000a0: f125 c001 1d13 14dd 15fc 2df8 c6de ee1f
000000b0: 22fc f309 0e11 22dc 33eb 2c3c dc48 c2cb
000000c0: 0e2d d8f1 d83c 4927 f6f1 18c2 59c0 0136
000000d0: 1323 ddf9 2b05 10e3 e2f8 11fc e9b7 ed0d
000000e0: f121 23c9 fdde 2f12 f605 eeb2 28df f150
000000f0: e927 d017 e8fb b529 e706 20fa 2406 05f2
-0.16497298 -0.2557081 0.2887027 0.23096216 0.13197838 -0.23096216 -0.07423784 0.12372973
-0.21446486 -0.28045404 -0.05774054 0.23921081 -0.20621622 -0.016497297 0.16497298 -0.2722054
-0.06598919 0.09073514 0.09073514 -0.16497298 -0.23921081 -0.07423784 0.09073514 0.24745946
-0.016497297 0.0 0.14022702 -0.18971892 0.09073514 -0.23096216 -0.2887027 -0.2722054
0.44542703 -0.15672432 0.50316757 0.10723243 -0.3052 0.09073514 0.032994594 0.12372973
0.008248649 0.19796756 0.07423784 0.56915677 0.23921081 -0.06598919 -0.24745946 0.22271352
0.016497297 0.5444108 0.016497297 0.34644324 0.24745946 -0.33819458 -0.44542703 -0.17322162
0.39593512 -0.24745946 -0.08248649 -0.36294055 -0.29695135 -0.41243243 0.09898378 0.44542703
-0.10723243 -0.09898378 0.29695135 -0.04949189 -0.032994594 -0.18147027 0.14022702 0.19796756
0.10723243 -0.14022702 -0.04949189 -0.032994594 -0.22271352 0.14022702 0.04949189 0.14847568
-0.16497298 -0.15672432 0.0 -0.2887027 -0.06598919 0.032994594 -0.09073514 -0.2557081
0.0 -0.21446486 -0.20621622 -0.2557081 -0.2722054 -0.29695135 0.10723243 0.17322162
-0.2557081 -0.20621622 0.17322162 0.20621622 0.3546919 -0.36294055 -0.2722054 0.12372973
0.33819458 0.33819458 0.07423784 0.2557081 0.2887027 0.5856541 0.0 -0.80836755
0.06598919 -0.041243244 0.5279135 -0.04949189 0.2557081 0.23096216 0.17322162 0.29695135
0.04949189 0.33819458 0.032994594 -0.41243243 -0.09898378 0.15672432 0.31344864 0.26395676
0.10723243 -0.10723243 0.47017297 -0.5444108 0.05774054 -0.18147027 0.4949189 0.18147027
-0.23921081 0.13197838 -0.016497297 0.18147027 0.56915677 0.11548108 0.3546919 0.26395676
-0.04949189 0.40418378 -0.04949189 -0.14022702 -0.2722054 -0.23096216 -0.42892972 0.43717837
-0.3216973 -0.08248649 -0.09898378 0.10723243 -0.016497297 -0.5114162 0.23921081 0.19796756
-0.12372973 0.3052 -0.5279135 0.008248649 0.23921081 0.15672432 0.16497298 -0.2887027
0.17322162 -0.032994594 0.37118918 -0.06598919 -0.47842163 -0.28045404 -0.14847568 0.2557081
0.28045404 -0.032994594 -0.10723243 0.07423784 0.11548108 0.14022702 0.28045404 -0.29695135
0.4206811 -0.17322162 0.36294055 0.4949189 -0.29695135 0.5939027 -0.5114162 -0.43717837
0.11548108 0.37118918 -0.32994595 -0.12372973 -0.32994595 0.4949189 0.60215133 0.3216973
-0.08248649 -0.12372973 0.19796756 -0.5114162 0.7341297 -0.5279135 0.008248649 0.44542703
0.15672432 0.2887027 -0.2887027 -0.05774054 0.3546919 0.041243244 0.13197838 -0.23921081
-0.24745946 -0.06598919 0.14022702 -0.032994594 -0.18971892 -0.60215133 -0.15672432 0.10723243
-0.12372973 0.2722054 0.2887027 -0.4536757 -0.024745945 -0.28045404 0.3876865 0.14847568
-0.08248649 0.041243244 -0.14847568 -0.6433946 0.32994595 -0.2722054 -0.12372973 0.6598919
-0.18971892 0.3216973 -0.39593512 0.18971892 -0.19796756 -0.041243244 -0.61864865 0.33819458
-0.20621622 0.04949189 0.26395676 -0.04949189 0.29695135 0.04949189 0.041243244 -0.11548108

sequential/dense_2/MatMul f4 [16, 32]
00000000: 8e8d 24be 8c63 49be 30e4 c0bd 2208 e6bd
00000010: 4035 a3be f6e7 bdbe 386a d83c 576e 733e
00000020: 8bfd d73c 1c68 bdbe 1774 6d3e d915 a53e
00000030: 9c34 973e ceaf 8cbe a9da 80be 99bf 32be
00000040: a6e2 423e 8f8e fabd a028 87be 57f7 27be
00000050: c1d1 35be be70 093e eb77 4fbe a663 a7be
00000060: bc1a 0f3e d639 c63d c12c 99be afd0 663e
00000070: 2849 b83c adbd a3bd 0b61 02be c75a 97be
00000080: 3080 d63d ead5 bebe 3cdc 54be 0241 243f
00000090: 1f00 3fbf 55fd 983e 5f7b 0abf 992e 17be
000000a0: 8413 fbbe e3d5 19bf e0ce 0a3f d5bd 733e
000000b0: a7c2 febe 051c 17bf 2966 ce3e 06af 86be
000000c0: 54e9 203f fe12 703d 2636 3c3e fa4d c0be
000000d0: 6cbb 1abf 7f53 a43e 6759 fc3e 4f97 c1be
000000e0: 33be cb3e 8538 1b3e eb3c 0a3f 7b73 12be
000000f0: 4c43 d23e 64f9 923f 06f3 57be 4671 30be
00000100: 32b8 f1bd 2921 e83e 6000 5e3d dbb9 ddbd
00000110: 1e50 a0be 5fe0 87bd 55aa 0d3f 457a f5bc
00000120: b04d ab3e 43c8 1f3f b77f 46bb 4f34 be3d
00000130: 750c 123f e0a4 c43e f5c4 353f 1c1a 85bd
00000140: 943f d0be cba4 d0bd 9a53 90be 85f3 b5be
00000150: c6b3 833e c034 953e 42fc 0a3d c168 1c3d
00000160: eb52 a9bb 13ea 163e 7ca4 a8bd 0366 d03c
00000170: 3485 be3d 0e28 2bbf 8362 2dbd 4046 793c
00000180: 0020 15b9 5df0 913d 75fb 403d d63a dcbd
00000190: 7169 07bf b65b 313f e092 eb3d 7c64 1f3e
000001a0: 9288 08be b858 173e 5587 313f 6d2e c23e
000001b0: 8c9f 853e 35fc 8e3e 51fe d7be 6fe0 4bbe
000001c0: e40e f43e 7dea 9bbb 6152 0bbe b2df b3be
000001d0: 327b fa3e ea79 943e 946f c83e 6c0b 9e3e
000001e0: 679e 4dbe ac9b 04be 97cf c8bd 8046 a23e
000001f0: a86c 4a3f d84b c33e ec27 95be ddb0 6cbe
00000200: 13ae 9b3e 697e c53e f520 5abe 9718 153f
00000210: 18f6 a43d 9f78 cdbe bbbf 5cbc e67d ffbe
00000220: 277d 373e f5de 4dbe 6845 b73e f595 42be
00000230: ca34 b83e 145e 423f 2ffb 21be 52ed 173e
00000240: b7b4 0fbf b90b bb3e eaea 413e 1a02 043f
00000250: 7b31 b5be ad49 4ebf 4cd8 e33e 9026 f03e
00000260: ec8d b53e 378e 603e d865 b83e ac30 693e
00000270: 6c60 0a3e 0f6d 7c3e 8cc8 813e 927f 2d3e
00000280: 1a4e 93be ef92 b73e 0df9 83be 6455 5b3e
00000290: adaf d43e ec6d 3e3d 4cf1 88be 5638 083f
000002a0: a037 6bbe 88ba 123f b4de 1b3e 94d5 61be
000002b0: fdff 4e3f 238d ab3e 2ee4 e23e 6eff 1f3e
000002c0: 460b 313e edc0 9a3e 214c 5abe 9a3f dfbe
000002d0: 5a5b d13e 8479 213f c278 51be 4d77 5a3e
000002e0: 9320 f53d a650 c5be 9ba1 d4be 1a5f a9be
000002f0: a11b 1a3f e442 51be 3417 dbbe 4b34 37be
00000300: bf9d b4be 2c10 95be 8033 8dbc bfdc a6be
00000310: e4e8 c13e 29c9 e13e 9037 113f 3c32 383f
00000320: 7047 993e a80d 84be fddf 00bf e0ef 2a3f
00000330: 55dd e0be 65b8 203e f68f 053f e048 753c
00000340: 215e 973e 1f33 cd3e aec5 273e 981f 623e
00000350: dd6a b4be 0a50 3f3e 96ab 8abe dfdc 2dbf
00000360: 5087 24bc a17c e63e 0b8f 52b9 f3bf 0bbd
00000370: b3c0 18be 4cad adbe ad88 c13e 0ca6 1ebe
00000380: e23f 7b3e 6e6f 7d3e 780b a83e 93d9 783e
00000390: 8f70 93be 6b2d bb3e e7fe 1dbf e668 ecbe
000003a0: b25a 1d3f 1249 22be ed45 593f 390e 9d3e
000003b0: b085 563f 31f6 003f 5eb3 1dbf 226b 163e
000003c0: 059c 363d 1011 073d e933 903e 3c26 91be
000003d0: eb48 a53d 8e31 b2bc 4ca5 243f c3e5 a13e
000003e0: a49e 903e 86d4 cebe 5a88 aa3d 449d 33bd
000003f0: 96e8 203f 34a4 5d3f 67dc cbbe 505a f03c
-0.16069624 -0.1966688 -0.09418523 -0.1123202 -0.31876564 -0.37091035 0.026417837 0.2377256
0.026366016 -0.36993492 0.23188816 0.3224323 0.29532325 -0.27477878 -0.25166824 -0.17455901
0.19031772 -0.12234222 -0.26398182 -0.16402946 -0.17755796 0.13421914 -0.20260589 -0.32693213
0.13975042 0.09679 -0.29916957 0.22540544 0.022495821 -0.07995162 -0.12732331 -0.29561445
0.104736686 -0.37272578 -0.20787138 0.64161694 -0.7460956 0.29880777 -0.540945 -0.1476387
-0.49038327 -0.6009199 0.54221916 0.23802884 -0.49757883 -0.5902713 0.40312317 -0.26305407
0.6285603 0.058611862 0.18380031 -0.3755949 -0.60442233 0.32094952 0.4928696 -0.37810752
0.39793548 0.15158279 0.53999203 -0.14301865 0.41066968 1.1482358 -0.210888 -0.1723071
-0.118027106 0.453378 0.054199576 -0.10826465 -0.31311125 -0.06634592 0.5533803 -0.02996553
0.33457708 0.6241495 -0.0030288526 0.09287321 0.5705026 0.3840704 0.7100366 -0.064991206
-0.40673506 -0.10187682 -0.28188783 -0.35537353 0.25723094 0.29141808 0.033931978 0.03818584
-0.0051673553 0.1473773 -0.08234498 0.025439268 0.0930275 -0.66857994 -0.042330276 0.015214503
-0.00014221668 0.07125924 0.047114808 -0.107534096 -0.52895266 0.69280565 0.115026236 0.15565675
-0.13333347 0.14779937 0.69347125 0.37926045 0.26098287 0.27926794 -0.42186216 -0.19909833
0.4766761 -0.004758178 -0.13605644 -0.35131603 0.48922116 0.28999263 0.39147627 0.3086809
-0.20079957 -0.12950009 -0.098052196 0.31694412 0.79072046 0.38143802 -0.2913202 -0.23114343
0.30406246 0.38573006 -0.21301635 0.58240646 0.08054751 -0.4013109 -0.0134734465 -0.4990074
0.17918836 -0.20104583 0.3579514 -0.19002517 0.35977775 0.759248 -0.15818475 0.14836624
-0.56135124 0.3653238 0.18937269 0.51565707 -0.35389313 -0.8058117 0.4450096 0.4690442
0.3545984 0.2192925 0.360152 0.22772473 0.13513345 0.24650978 0.25348318 0.16943195
-0.28770524 0.3585429 -0.25775948 0.21419293 0.4154028 0.04649155 -0.26746595 0.5321096
-0.22970438 0.57315874 0.15221673 -0.2205413 0.8085936 0.33506116 0.44314712 0.15624782
0.17289457 0.30225316 -0.21318103 -0.43603212 0.40890008 0.63076043 -0.20456222 0.21334572
0.11969104 -0.38538092 -0.41529545 -0.3308037 0.6019841 -0.20435673 -0.4279114 -0.17891042
-0.352766 -0.291139 -0.017236471 -0.3259029 0.37872994 0.44098786 0.56725407 0.7195165
0.29937315 -0.2579167 -0.5034178 0.6677227 -0.43918863 0.15695341 0.5217279 0.014970988
0.29564002 0.40078065 0.16384003 0.22082365 -0.3523778 0.18682876 -0.27084035 -0.6791515
-0.010042027 0.4501696 -0.00020080448 -0.034118604 -0.14917259 -0.33921278 0.37799588 -0.1549303
0.24536088 0.24749538 0.3282125 0.24301748 -0.28796813 0.3655809 -0.61717075 -0.4617378
0.61466515 -0.15848187 0.84872323 0.30674914 0.8379774 0.5037566 -0.6160182 0.14689305
0.044582386 0.032975256 0.28164604 -0.28349483 0.080705486 -0.021752145 0.64314723 0.31620607
0.28246033 -0.40396518 0.08326788 -0.043851152 0.628549 0.8657868 -0.3981659 0.02933994

sequential/dense_3/MatMul f4 [10, 16]
00000000: 6752 a33e f9ad 963e 8d4c 0cbf f284 75bc
00000010: ffe8 883e ebae 2dbf ecb5 61bf 092c aa3e
00000020: c518 243e 01fb 21bf ece1 793e 1541 d63e
00000030: 90c5 d23e c271 163f 38be febe ea7a 1fbf
00000040: b5a7 643e b7b6 073f 3849 99bf f376 fb3e
00000050: 3cb0 15be 77e3 b83e b0cb 3fbe 0f17 1e3f
00000060: 89ce e7be e93b d1be f768 51be 81ba 19bf
00000070: 6db7 cd3e d685 afbd 4f4f 03bf b344 91be
00000080: 9d96 6f3e a799 57bf f639 223f 92f5 cc3e
00000090: f84d b6be 772f 093f e9e3 b1be d67c 4b3e
000000a0: 4017 d2be c093 023e b5e8 8abf c9de 46be
000000b0: 1613 3b3f 28a6 afbd ce80 61bf 9b8e c7be
000000c0: 5e3d ce3e bcd7 493f 0c2a 113f ffe1 9c3e
000000d0: d6ab 31bf d2cf 193f c958 36bf c633 6bbf
000000e0: 3512 eebe d65d c7be ea2f a3be 1fd2 1bbf
000000f0: 9e4d a6be 0106 423f b312 0a3f 93ca ac3e
00000100: d43d 5d3e 91e7 1bbf e25e 9a3e 527d d83e
00000110: 9af2 983e e26b f2be 0c31 1c3b f874 e9be
00000120: ed31 eb3e 9886 3f3f 51b0 263f fb69 d2be
00000130: 5001 8fbd 7c7d 25bf c5de 2ebf c8cb 89be
00000140: c774 913c 8ed3 313f 8834 28be 9226 a7be
00000150: dd05 20bf fdb7 3cbf 978f 223f ff79 08bf
00000160: 4e96 a93d 2dd0 af3d 7ff4 b43e 76e3 02bf
00000170: b7a6 67bf 6e9a 063f ef42 0a3f 5ad4 243f
00000180: 598c 0e3d 5f00 68bf 71c6 a13e 5ac6 f8be
00000190: a44f 67be a032 723e 02f3 413f 0e66 04bf
000001a0: 8ff4 673e f3a2 b7be 6706 c4be a5b6 8bbd
000001b0: ebc2 da3d 0b51 0a3f eb6d 7ebf 2a19 d33e
000001c0: 9625 70bd 3062 ac3d e784 513e 54c1 2fbe
000001d0: 2a47 433e faa1 943e 3e1d 0bbf 770b 2e3f
000001e0: b0c1 873e b553 953d d3b0 4f3e 3729 27bf
000001f0: 502d 133f fda8 2ebf 95c4 3c3f b962 18bf
00000200: 3762 e4be ae9a 4f3f 8889 4ebf 391e e43e
00000210: 9645 a43d ed39 48bf e6b4 f83c 12be ce3e
00000220: 3cfb 1c3f 016e 513e 88af 8dbd cc31 43bb
00000230: 1006 85bf 7fa7 5dbf 4f9e db3d 75f4 08bf
00000240: 33bf ecbe 89c0 e2be b5e2 0ebf 016d 38bf
00000250: 4101 483f b0d0 92be f014 e13c 043b 41bf
00000260: f4d0 25be 60c1 b6be 4df7 863d 41a3 163f
00000270: af91 0dbf 94ab 9f3e df71 c9be c190 a33e
0.31898805 0.29429606 -0.5480431 -0.01498531 0.26740262 -0.6784503 -0.88168216 0.3323672
0.16025074 -0.63273627 0.24402589 0.4184653 0.41166353 0.5876733 -0.497545 -0.62296927
0.223296 0.53013176 -1.197547 0.4911419 -0.1461801 0.36111042 -0.18730044 0.61753935
-0.4527476 -0.4086602 -0.20450197 -0.6005021 0.40179005 -0.08570449 -0.5129289 -0.28372726
0.23397298 -0.8421883 0.6336969 0.40031105 -0.3560636 0.5358805 -0.34744194 0.1987184
-0.41033363 0.12751675 -1.0852267 -0.19420923 0.73076 -0.08576614 -0.88087165 -0.38975987
0.40281194 0.7884481 0.56704783 0.3064117 -0.69402826 0.60082734 -0.71229225 -0.91875875
-0.46498266 -0.3893878 -0.31872493 -0.60867494 -0.32481092 0.7579041 0.5393478 0.33748302
0.21605617 -0.6090022 0.30150515 0.42283112 0.2987259 -0.47347933 0.0023832945 -0.45597053
0.45936528 0.7481475 0.6511279 -0.41096482 -0.06982672 -0.646446 -0.6830867 -0.26913285
0.01775588 0.6946343 -0.16426289 -0.32646614 -0.62508947 -0.73718244 0.6350035 -0.5331115
0.082806215 0.08584628 0.35342786 -0.5112833 -0.9048876 0.5257939 0.5400838 0.6438652
0.034801815 -0.90625566 0.3159671 -0.4858883 -0.22588974 0.23652124 0.75761425 -0.51718223
0.22651885 -0.35866508 -0.38286135 -0.06821946 0.10681709 0.5402991 -0.9938647 0.41230136
-0.058629595 0.08417165 0.20460854 -0.17163593 0.19070116 0.29029828 -0.54341495 0.67986244
0.2651496 0.072913565 0.20282297 -0.65297264 0.57491016 -0.68226606 0.7373746 -0.5952564
-0.44606182 0.810954 -0.80678606 0.44554308 0.08021085 -0.7821339 0.030359697 0.40379387
0.61320853 0.2045212 -0.069182456 -0.002978432 -1.0392475 -0.86583704 0.10723554 -0.5349801
-0.46239623 -0.44287518 -0.5581468 -0.72041327 0.78126913 -0.2867484 0.027475804 -0.75480676
-0.1619299 -0.35694408 0.06590138 0.58842856 -0.5530042 0.3118559 -0.3934469 0.31946376
